Model: "autoencoder"
_________________________________________________________________
Layer (type)                 Output Shape              Param #   
=================================================================
input_1 (InputLayer)         [(None, 200, 200, 1)]     0         
_________________________________________________________________
Conv1 (Conv2D)               (None, 200, 200, 32)      320       
_________________________________________________________________
batch_normalization (BatchNo (None, 200, 200, 32)      128       
_________________________________________________________________
rELU1 (Activation)           (None, 200, 200, 32)      0         
_________________________________________________________________
MaxPool1 (MaxPooling2D)      (None, 100, 100, 32)      0         
_________________________________________________________________
batch_normalization_1 (Batch (None, 100, 100, 32)      128       
_________________________________________________________________
rELU2 (Activation)           (None, 100, 100, 32)      0         
_________________________________________________________________
MaxPool2 (MaxPooling2D)      (None, 50, 50, 32)        0         
_________________________________________________________________
Conv3 (Conv2D)               (None, 50, 50, 64)        18496     
_________________________________________________________________
Conv4 (Conv2D)               (None, 50, 50, 64)        36928     
_________________________________________________________________
batch_normalization_2 (Batch (None, 50, 50, 64)        256       
_________________________________________________________________
rELU4 (Activation)           (None, 50, 50, 64)        0         
_________________________________________________________________
UpSample1 (UpSampling2D)     (None, 100, 100, 64)      0         
_________________________________________________________________
Conv5 (Conv2D)               (None, 100, 100, 32)      18464     
_________________________________________________________________
batch_normalization_3 (Batch (None, 100, 100, 32)      128       
_________________________________________________________________
rELU5 (Activation)           (None, 100, 100, 32)      0         
_________________________________________________________________
UpSample2 (UpSampling2D)     (None, 200, 200, 32)      0         
_________________________________________________________________
Conv7 (Conv2D)               (None, 200, 200, 1)       289       
_________________________________________________________________
DecodeSigmoid (Activation)   (None, 200, 200, 1)       0         
=================================================================
Total params: 75,137
Trainable params: 74,817
Non-trainable params: 320
_________________________________________________________________
Train on 5000 samples, validate on 500 samples
Epoch 1/20
  64/5000 [..............................] - ETA: 4:15 - loss: 0.9649
…
